_________________________________________________________________
Layer (type)                 Output Shape              Param #   
=================================================================
dense_1 (Dense)              (None, 128)               32896     
_________________________________________________________________
batch_normalization_1 (Batch (None, 128)               512       
_________________________________________________________________
dense_2 (Dense)              (None, 128)               16512     
_________________________________________________________________
batch_normalization_2 (Batch (None, 128)               512       
_________________________________________________________________
dense_3 (Dense)              (None, 128)               16512     
_________________________________________________________________
batch_normalization_3 (Batch (None, 128)               512       
_________________________________________________________________
dense_4 (Dense)              (None, 10)                1290      
=================================================================
Total params: 68,746
Trainable params: 67,978
Non-trainable params: 768
_________________________________________________________________
Train on 7291 samples, validate on 2007 samples
Epoch 1/15
 - 1s - loss: 0.4894 - acc: 0.8465 - val_loss: 0.3450 - val_acc: 0.9078
Epoch 2/15
 - 1s - loss: 0.1422 - acc: 0.9630 - val_loss: 0.2932 - val_acc: 0.9218
…
