_________________________________________________________________
Layer (type)                 Output Shape              Param #   
=================================================================
dense_1 (Dense)              (None, 128)               32896     
_________________________________________________________________
batch_normalization_1 (Batch (None, 128)               512       
_________________________________________________________________
dense_2 (Dense)              (None, 128)               16512     
_________________________________________________________________
batch_normalization_2 (Batch (None, 128)               512       
_________________________________________________________________
dense_3 (Dense)              (None, 128)               16512     
_________________________________________________________________
batch_normalization_3 (Batch (None, 128)               512       
_________________________________________________________________
dense_4 (Dense)              (None, 10)                1290      
=================================================================
Total params: 68,746
Trainable params: 67,978
Non-trainable params: 768
_________________________________________________________________
Train on 7291 samples, validate on 2007 samples
Epoch 1/10
 - 26s - loss: 2.2757 - acc: 0.1587 - val_loss: 13.1400 - val_acc: 0.1405
Epoch 2/10
 - 26s - loss: 2.2754 - acc: 0.1631 - val_loss: 12.9122 - val_acc: 0.1286
…
